…
osti, e \\(0.8\\) per lo strato di input.</p>"},{"location":"material/06_tflow/27_tflow_images/exercises/","title":"E27 - Convolutional Neural Networks in TensorFlow e Keras","text":""},{"location":"material/06_tflow/27_tflow_images/exercises/#esercizio-e271","title":"Esercizio E27.1","text":"<p>Creare un modello di rete neurale composto in questo modo:</p> <pre><code>_________________________________________________________________\n Layer (type)                Output Shape              Param #   \n=================================================================\nconv_1 (Conv2D)             (None, 30, 30, 32)        896       pooling_1 (MaxPooling2D)    (None, 15, 15, 32)        0         conv_2 (Conv2D)             (None, 13, 13, 32)        9248      dropout (Dropout)           (None, 13, 13, 32)        0         flatten (Flatten)           (None, 5408)              0         classification (Dense)      (None, 10)                54090     _________________________________________________________________\n</code></pre> <p>Questo modello deve essere in grado di classificare le immagini presenti nel dataset CIFAR10.</p> <p>Soluzione</p> <p>La soluzione a questo esercizio \u00e8 contenuta in questo notebook.</p>"},{"location":"material/06_tflow/27_tflow_images/lecture/","title":"27 - Convolutional Neural Networks in TensorFlow e K
…
sorflow.org/example_images/flower_photos.tgz\"\ndata_dir = keras.utils.get_file(origin=dataset_url,\nextract=True)\ndata_dir = pathlib.Path(data_dir).parent\ndata_dir = pathlib.Path(data_dir, 'flower_photos')\n</code></pre> <p>Utilizziamo i metodi di Keras per caricare il dataset in memoria ed addestrare un modello per la classificazione di questo tipo:</p> <pre><code>_________________________________________________________________\n Layer (type)                Output Shape              Param #   \n=================================================================\nrescaling_1 (Rescaling)     (None, 150, 150, 3)       0         conv_1 (Conv2D)             (None, 148, 148, 32)      896       max_pool_1 (MaxPooling2D)   (None, 74, 74, 32)        0         conv_2 (Conv2D)             (None, 72, 72, 32)        9248      max_pool_2 (MaxPooling2D)   (None, 36, 36, 32)        0         dropout (Dropout)           (None, 36, 36, 32)        0         flatten_1 (Flatten)         (None, 41472)             0         classification (Dense)      (None, 5)                 207365    _________________________________________________________________\n</code></pre> <p>Inferiamo il numero di classi del dataset (ovvero la <code>X</code> nel precedente sommario) usando l'attributo <code>class_names</code> del dataset ottenuto da <code>image_dataset_from_directory</code>.</p> <p>Soluzione</p> <p>La soluzione a questo esercizio \u00e8 contenuta in questo notebook.</p>"},{"locatio
…
